data.pth (torch, 3818 bytes, 6 tensors)

l1.weight f4 [8, 21]
0.21888696 -0.013251357 -0.35243207 -0.32186475 0.5599354 -0.37083948 -0.11045584 0.52235544
-0.48774624 -0.07304581 -0.4873784 -0.48733845 -0.34129325 -0.03361957 -0.17619684 0.10036931
-0.0021340926 0.36212602 -0.112933464 -0.09898798 0.17571475 -0.18519646 0.101990834 0.23473793
0.37706974 0.38851607 0.45624742 0.3990647 0.40058666 0.5645141 -0.08782861 0.31844756
0.40168458 0.5895929 0.14071016 -0.14890738 -0.16640866 -0.2070583 -0.6788498 -0.30047923
0.35789183 0.19222319 -0.04245695 -0.2022729 0.2821123 0.6208366 -0.41082746 0.4330865
0.5008058 -0.41086242 0.46167156 -0.12473546 0.6963183 0.6356307 0.30528525 0.5369723
-0.35918865 -0.09431244 -0.08764968 -0.13666941 -0.04559606 0.23772867 0.03514195 -0.20945735
0.14306702 0.20240727 0.19802986 0.7285231 0.15993679 0.30827537 0.6543493 0.41856048
-0.14214055 0.21418749 0.52124584 0.20780016 0.26266655 0.18433806 0.0005378773 0.28514522
-0.5168553 -0.15170841 0.4723881 0.03496035 0.007014359 -0.04237875 0.06974507 -0.14275861
-0.46138662 0.11557719 0.50912666 -0.46142074 0.7471646 -0.25645056 0.27983272 0.50434494
-0.07425408 0.3606573 0.45339647 0.2515126 0.49620876 -0.11412751 -0.037004873 0.20371038
-0.2990764 0.10321905 0.1260383 0.13113682 -0.1408749 -0.01146394 -0.043959286 0.10941622
0.035868928 0.04268776 -0.16074347 0.0475183 0.02660203 -0.20056263 -0.02757056 0.19976892
-0.11958504 -0.12817387 -0.16048607 -0.031099305 -0.20384213 -0.15790758 0.025472075 -0.21327023
0.25240457 0.51065606 -0.1317996 -0.1203706 -0.09967977 -0.15757951 0.11308171 -0.22938113
0.40166086 0.12758139 0.3125656 0.4358021 0.9991412 0.08873321 0.9305179 -0.3665956
0.034153417 0.47055727 0.4606297 0.36764896 0.2758778 -0.14317116 -0.23327559 -0.19107072
-0.19758384 0.007992485 -0.19123499 -0.1910654 0.13592066 -0.20140763 -0.19104761 -0.37784764
-0.13274342 0.01475997 -0.080283634 0.3733282 0.5727093 0.26989686 0.0012650639 0.4196604
00000000: e723 603e 381c 59bc fa71 b4be 75cb a4be
00000010: ed57 0f3f acde bdbe ac36 e2bd 16b9 053f
00000020: e0b9 f9be 0b99 95bd a989 f9be 6d84 f9be
00000030: fdbd aebe adb4 09bd f26c 34be 6d8e cd3d
00000040: 22dc 0bbb 9568 b93e a949 e7bd 36ba cabd
00000050: 91ee 333e 24a4 3dbe 92e0 d03d 245f 703e
00000060: 490f c13e 94eb c63e 4399 e93e 3552 cc3e
00000070: b219 cd3e ff83 103f 7cdf b3bd 8f0b a33e
00000080: 9aa9 cd3e 8fef 163f 5316 103e 2d7b 18be
00000090: 0867 2abe 1707 54be 1ac9 2dbf 6ad8 99be
000000a0: 993d b73e 28d6 443e 57e7 2dbd a120 4fbe
000000b0: 0671 903e 26ef 1e3f fa57 d2be 84bd dd3e
000000c0: cf34 003f 8f5c d2be 3760 ec3e 4e75 ffbd
000000d0: eb41 323f b2b8 223f 594e 9c3e 0477 093f
000000e0: 93e7 b7be e126 c1bd ad81 b3bd 11f3 0bbe
000000f0: efc2 3abd 256f 733e 01f1 0f3d fd7b 56be
00000100: 2980 123e da43 4f3e 57c8 4a3e 7d80 3a3f
00000110: 78c6 233e 45d6 9d3e 7083 273f 8f4d d63e
00000120: 4b8d 11be f753 5b3e 5e70 053f 91c9 543e
00000130: 3b7c 863e 1ec3 3c3e 5600 0d3a 8efe 913e
00000140: a150 04bf 7359 1bbe dadc f13e 9532 0f3d
00000150: b5d8 e53b 5795 2dbd 81d6 8e3d 502f 12be
00000160: de3a ecbe bcb3 ec3d 2056 023f 573f ecbe
00000170: 2e46 3f3f 7d4d 83be 3c46 8f3e c01c 013f
00000180: 8612 98bd 13a8 b83e 9523 e83e 42c6 803e
00000190: 130f fe3e afbb e9bd 6c92 17bd 7499 503e
000001a0: 8b20 99be 8264 d33d 2f10 013e bb48 063e
000001b0: 8341 10be 40d3 3bbc a70e 34bd 9c15 e03d
000001c0: 4ceb 123d 5cd9 2e3d f099 24be 8da2 423d
000001d0: 80ec d93c 4a60 4dbe a8db e1bc 3990 4c3e
000001e0: 00e9 f4bd 0340 03be 7656 24be f8c3 febc
000001f0: febb 50be 86b2 21be d0aa d03c 8363 5abe
00000200: 2c3b 813e 5bba 023f 79f6 06be dc84 f6bd
00000210: e824 ccbd 865c 21be 6297 e73d e3e2 6abe
00000220: 7ea6 cd3e b2a4 023e 9908 a03e 7421 df3e
00000230: b8c7 7f3f c2b9 b53d 6c36 6e3f 6bb2 bbbe
00000240: 74e4 0b3d e2ec f03e a8d7 eb3e 7c3c bc3e
00000250: db3f 8d3e 769b 12be ccdf 6ebe 0ba8 43be
00000260: 6b53 4abe e9f2 023c 1bd3 43be a6a6 43be
00000270: c92e 0b3e cd3d 4ebe fca1 43be 3f75 c1be
00000280: e4ed 07be cdd3 713c bf6b a4bd e024 bf3e
00000290: 149d 123f ec2f 8a3e 80d0 a53a badd d63e

l1.bias f4 [8]
0.48735458 0.66742694 0.41080064 0.51478994 0.46085775 -0.082297996 0.17945611 0.19083846
00000000: 8a86 f93e 7edc 2a3f 7654 d23e 46c9 033f
00000010: 8cf5 eb3e da8b a8bd 58c3 373e 286b 433e

l2.weight f4 [8, 8]
-0.84168565 0.26411617 0.96598077 0.43554652 0.4323121 -0.08706033 -0.040330384 -0.6093913
-0.5037948 0.63267803 0.97103965 0.14057027 0.16845147 -0.34174484 0.273323 -0.77994645
-0.47044238 0.5615644 0.41906354 0.9151542 0.6165092 -0.09630814 0.88607967 -0.5822768
0.69197834 0.6707404 -0.924695 0.8281992 -0.81859154 0.22804597 -0.81046635 -0.6441559
-0.24742568 -0.13876045 -0.009597838 -0.027982652 -0.11067034 -0.012817949 0.052924436 0.045485917
-0.6165602 0.3486232 1.4842083 0.40947583 0.737984 0.05905232 -0.096672356 -0.6397577
-0.530067 0.5944761 0.25506628 1.0426575 0.8868701 0.0769575 1.2941512 -0.36419314
0.2544654 -0.3219056 0.20050618 0.16816865 -0.21473546 0.35183522 -0.12967844 -0.29037517
00000000: b678 57bf 3c3a 873e 844a 773f f4ff de3e
00000010: 0358 dd3e b04c b2bd 7931 25bd 1101 1cbf
00000020: b2f8 00bf 30f7 213f 0e96 783f a7f1 0f3e
00000030: 8b7e 2c3e 2ef9 aebe fef0 8b3e 92aa 47bf
00000040: d3dd f0be afc2 0f3f 7f8f d63e 8c47 6a3f
00000050: 8cd3 1d3f 343d c5bd 1ed6 623f 1810 15bf
00000060: 7e25 313f a5b5 2b3f d0b8 6cbf dd04 543f
00000070: 378f 51bf e284 693e b97a 4fbf 67e7 24bf
00000080: 285d 7dbe 3817 0ebe 4040 1dbc e03b e5bc
00000090: 22a7 e2bd 6002 52bc 4bc7 583d 714f 3a3d
000000a0: e4d6 1dbf bd7e b23e 8afa bd3f d1a6 d13e
000000b0: 85ec 3c3f d8e0 713d 28fc c5bd 29c7 23bf
000000c0: 79b2 07bf 962f 183f 0c98 823e cd75 853f
000000d0: eb09 633f e59b 9d3d bfa6 a53f 8677 babe
000000e0: 4a49 823e d0d0 a4be 7e51 4d3e 6734 2c3e
000000f0: 9de3 5bbe bf23 b43e 6dca 04be 0eac 94be

l2.bias f4 [8]
0.06268224 -0.32988706 0.5089763 0.43348816 -0.04295187 -0.22773898 0.32837626 -0.13060659
00000000: 8c5f 803d f5e6 a8be 454c 023f 29f2 dd3e
00000010: 4dee 2fbd 6834 69be ef20 a83e bcbd 05be

l3.weight f4 [3, 8]
-0.3030253 -1.0378466 0.6675793 0.88998145 -0.08900883 -1.2985214 0.79217625 -0.111526504
0.93372136 0.5824467 0.314488 -0.8257141 0.17811131 0.89054376 0.030117732 -0.025994744
-0.49853837 -0.7252026 -0.4513414 -1.0186942 -0.10059954 -0.8543285 -0.42442617 0.1632059
00000000: 2226 9bbe 28d8 84bf 7ae6 2a3f d3d5 633f
00000010: 434a b6bd f335 a6bf 10cc 4a3f 0268 e4bd
00000020: 5d08 6f3f 3a1b 153f 9204 a13e 0062 53bf
00000030: d062 363e adfa 633f 76b9 f63c eef2 d4bc
00000040: 6c40 ffbe e1a6 39bf 3816 e7be 9264 82bf
00000050: 2207 cebd 46b5 5abf 634e d9be 731f 273e

l3.bias f4 [3]
-0.79093665 -0.77863896 1.5608329
00000000: d37a 4abf e254 47bf 5fc9 c73f
